cartpole/model/model_3.pt (torch_old, 5609 bytes, 6 tensors)

weight f4 [16, 4]
0	0xc001198b	-2.017184
1	0x3f16d097	0.5891203
2	0x40c62765	6.192309
3	0x3fefc026	1.8730514
4	0xc00f1f22	-2.2362752
5	0xbe95b8d8	-0.29242587
6	0x3eef2945	0.46711174
7	0x3fa1e8b2	1.2649138
8	0xc0098734	-2.1488771
9	0xbfa1c0ef	-1.2637004
10	0x3f417428	0.75567865
11	0x3fc5c347	1.5450219
12	0xbfe8df9b	-1.8193239
13	0x3f0385b8	0.51375914
14	0x40bbb95d	5.8663774
15	0x3f3b7008	0.7321782
16	0xc0123cc8	-2.2849598
17	0x3efe5157	0.49671432
18	0x40c30f44	6.0956135
19	0x3f9836e4	1.1891751
20	0xc01b5004	-2.4267588
21	0x3e0f0cee	0.13969776
22	0x40a37eb3	5.109216
23	0x3f0f9322	0.5608388
24	0xbffdbb72	-1.9822829
25	0x3f0aac83	0.5416948
26	0x40b32a13	5.598886
27	0x3f91fd48	1.140542
28	0xbf65573f	-0.8958625
29	0x3f3bb12b	0.7331721
30	0x4094f7d4	4.6552525
31	0x3efa9196	0.48939198
32	0xbff722b4	-1.9307466
33	0x3f55fe58	0.8359122
34	0x40c0e9dc	6.0285473
35	0x3f8a87a5	1.0822645
36	0xbfc15c0d	-1.5106217
37	0x3f773c32	0.96576226
38	0x40be273d	5.94229
39	0x3fad7c64	1.3553586
40	0xc013f836	-2.3120246
41	0x3e2a1e31	0.1661308
42	0x40b809d4	5.7511997
43	0x3ee6ec87	0.4510233
44	0xc0291632	-2.6419797
45	0x3cf00541	0.02929938
46	0x40b7715b	5.7325873
47	0x3f51c22f	0.81936926
48	0xbfa510a7	-1.2895707
49	0x3ed801e4	0.42188942
50	0x40b39296	5.611644
51	0x3f522418	0.82086325
52	0xc0033ae9	-2.0504706
53	0x3f668e4f	0.90060896
54	0x40b19e41	5.550568
55	0x3f8cec66	1.1009643
56	0xc02ad792	-2.6694074
57	0xbeb8a131	-0.3606048
58	0x40c871be	6.2638845
59	0x3f4d040a	0.8008429
60	0xbfb81cb6	-1.4383762
61	0x3f6a90b8	0.91627073
62	0x40a8f15e	5.279464
63	0x3f88144a	1.0631192

bias f4 [16]
0	0xc0359bfd	-2.8376458
1	0xbf74760e	-0.9549264
2	0x3ee1439e	0.439969
3	0xc03c4bca	-2.9421258
4	0xc03a405b	-2.910178
5	0xc034e945	-2.8267376
6	0xc039122d	-2.8917344
7	0xc02eae42	-2.7293859
8	0xc038de11	-2.8885539
9	0xc038a378	-2.8849773
10	0xc03e863c	-2.976943
11	0xc03c0f76	-2.9384437
12	0xc02fe9bd	-2.7486413
13	0xc03b86c1	-2.9300997
14	0xc02ed846	-2.7319503
15	0xc03552d8	-2.8331814

weight f4 [8, 16]
0	0x3f9b72ca	1.2144406
1	0xbee1aef6	-0.44078797
2	0xbfa60a0f	-1.297182
3	0x3ef6d9ec	0.48213136
4	0x3f87509b	1.0571474
5	0x3ea23c5a	0.3168667
6	0x3f2e5c94	0.68110013
7	0x3e2067a0	0.1566453
8	0x3f2814a7	0.6565651
9	0x3fa466d7	1.2843884
10	0x3ec5f7db	0.3866566
11	0x3f2bb571	0.6707373
12	0x3f443809	0.76648
13	0x3ee3bd90	0.44480562
14	0x3f7b5033	0.9816925
15	0x3f4b8626	0.7950157
16	0x3fcf124b	1.6177458
17	0xbf50e3a4	-0.8159735
18	0xbf94d995	-1.1628901
19	0x3f1a8afc	0.60368323
20	0x3f584fd6	0.8449682
21	0x3e785f29	0.2425505
22	0x3f633e54	0.8876698
23	0x3e8a9bb9	0.27071932
24	0x3f8659a6	1.0496109
25	0x3fa9d373	1.3267654
26	0x3f0500dd	0.5195444
27	0x3f808a0f	1.0042132
28	0x3f18b38e	0.5964898
29	0x3f6d02b5	0.92582256
30	0x3f7f72d3	0.9978458
31	0x3f162b00	0.5865936
32	0x3fce6c55	1.612681
33	0xbf62f26a	-0.88651145
34	0xbf95e301	-1.1709901
35	0x3f13faf8	0.5780482
36	0x3f8dcb54	1.1077676
37	0x3e88dce2	0.2673102
38	0x3f87c47f	1.0606841
39	0x3eb3be2d	0.3510603
40	0x3f81d67a	1.0143578
41	0x3f94beb7	1.1620702
42	0x3f390813	0.72277945
43	0x3f30541f	0.6887836
44	0x3ed9d7dc	0.425475
45	0x3f29f4dc	0.6638925
46	0x3f55b627	0.8348107
47	0x3f7c2d5b	0.98506707
48	0x3f255f43	0.6459848
49	0xbfccab3d	-1.5989758
50	0xbfcac20c	-1.5840468
51	0x3ea2305d	0.31677523
52	0x3e9b9d69	0.30393532
53	0xbedaa9d8	-0.42707705
54	0x3e504ef2	0.20342615
55	0x3ec1b5c1	0.3783398
56	0x3f266647	0.6499981
57	0x3f3e6cac	0.7438457
58	0x3e927df6	0.28611726
59	0x3e902609	0.2815402
60	0x3c3961ae	0.011314793
61	0x3ea77bef	0.3271174
62	0x3e17b5a0	0.14815378
63	0x3e8c0e21	0.2735453
64	0x3f8f574e	1.1198518
65	0xbf7ad324	-0.97978425
66	0xbf98ad65	-1.1927916
67	0x3f31f11b	0.6950852
68	0x3f44c059	0.76856
69	0x3e2a4025	0.16626032
70	0x3f4659ff	0.77481073
71	0x3ebff1ee	0.37489265
72	0x3f826c3e	1.0189283
73	0x3f8f0f6b	1.117658
74	0x3f0447dd	0.51672155
75	0x3f27624f	0.6538438
76	0x3f0eb863	0.557501
77	0x3f3415c7	0.7034573
78	0x3f6fd130	0.9367857
79	0x3f124c94	0.571481
80	0x3fc1f405	1.5152594
81	0xbf5d0a2d	-0.8634365
82	0xbfa731a9	-1.306203
83	0x3f4a9b85	0.79143554
84	0x3f49a0a5	0.7876075
85	0x3e7d7f4e	0.24755594
86	0x3f005f1f	0.50145143
87	0x3e2ee2c4	0.17078692
88	0x3f5964c2	0.8491937
89	0x3f9fd69b	1.2487367
90	0x3f2130c5	0.6296504
91	0x3f0d89bc	0.5528829
92	0x3f346741	0.7047005
93	0x3f561091	0.8361903
94	0x3f330965	0.6993621
95	0x3f27c461	0.65534025
96	0x3f5e4e7d	0.86838514
97	0xbfc2a8f6	-1.5207813
98	0xbfb47e2a	-1.4101002
99	0x3f2dcb05	0.6788791
100	0x3f15c95b	0.5851037
101	0xbc7bcfba	-0.01536935
102	0x3e199a3b	0.1500024
103	0x3e63ef91	0.22259356
104	0x3ef68b05	0.48152938
105	0x3f579429	0.8421045
106	0x3f0ac796	0.54210794
107	0x3e366b0c	0.17814273
108	0xbd9eae87	-0.07748132
109	0x3ede3a67	0.43403932
110	0x3eb1f3dd	0.34756365
111	0x3f057ebb	0.521465
112	0xbd84bc4b	-0.064812265
113	0xbfaa840f	-1.3321551
114	0xbf7f219b	-0.9966065
115	0xbe0bfc70	-0.13670516
116	0xbd23eeb4	-0.040022567
117	0xbcaf5c8f	-0.02140644
118	0xbe397fb8	-0.18115127
119	0xbd9e51db	-0.077304564
120	0xbde11513	-0.10990348
121	0xbe2df2b4	-0.16987115
122	0x3e85fd82	0.26169974
123	0xbe8dd813	-0.27703914
124	0xbeb9d920	-0.36298466
125	0x3e163993	0.146704
126	0xbda31776	-0.07963459
127	0xbe86896b	-0.26276717

bias f4 [8]
0	0xbfda49e1	-1.7053796
1	0xbffe7ec4	-1.9882436
2	0xbffc3e2b	-1.9706472
3	0xbfabab3b	-1.341163
4	0xbfd127de	-1.6340292
5	0xbfd81a6f	-1.6883067
6	0xbfb98927	-1.449498
7	0xbe6dba71	-0.23215653

weight f4 [2, 8]
0	0xc028cdd9	-2.637564
1	0xc010c621	-2.2620928
2	0xc01842fc	-2.3790884
3	0xc0102723	-2.2523887
4	0xc00af7cf	-2.171375
5	0xc0181d35	-2.3767827
6	0xbfff45c9	-1.9943172
7	0xbf2a5ada	-0.6654488
8	0xbfdf2bb3	-1.7435211
9	0xbffa4bf5	-1.955443
10	0xc012b8df	-2.2925336
11	0xc03ee2cf	-2.9825933
12	0xc0065596	-2.0989738
13	0xc02b52f2	-2.6769376
14	0xc024b2be	-2.5734096
15	0xbface90f	-1.3508624

bias f4 [2]
0	0xbe80e909	-0.25177792
1	0xbe610f11	-0.21978404
