cartpole/model/model_1.pt (torch_old, 2689 bytes, 6 tensors)

weight f4 [16, 4]
000000 ae 01 99 bf f1 39 c1 3f a5 08 ee 40 0f d0 ba 3f
       -1.1953638 1.5095807 7.4385552 1.4594744
000010 e2 51 b5 be 55 a4 58 3d 04 f5 b4 be fe 48 d3 bf
       -0.35414034 0.052891094 -0.35343182 -1.650665
000020 4c 28 1e be d0 79 b5 be e6 e4 6d bf 72 35 1e bf
       -0.1544506 -0.35444498 -0.92927396 -0.618003
000030 c9 d2 cf 3e 30 e6 54 bf af 14 99 c0 1f b5 87 bf
       0.40590504 -0.8316374 -4.783775 -1.0602149
000040 85 a5 0e c0 eb 68 eb 3f ec 5b 20 41 a9 a1 f5 3f
       -2.2288525 1.8391393 10.022442 1.918996
000050 77 21 aa 3f 53 4b 7e ba e1 3b 61 bf 87 b5 e9 bd
       1.3291463 -0.0009700555 -0.8798199 -0.11411577
000060 4f ec ae 3f 92 55 0b bc bb 22 0d c0 5b a4 4a be
       1.3665866 -0.008504288 -2.2052448 -0.19789259
000070 43 13 09 3e 3f db 5e 3f 99 ba fe 3f 88 df 50 3f
       0.13386254 0.87053293 1.9900695 0.8159108
000080 88 f7 40 c0 95 f1 89 3f f6 51 a4 40 8a 97 2e 3f
       -3.015108 1.077685 5.135005 0.6819998
000090 4f 84 35 3f dc 41 87 be 35 5c 8c bf 2f 5f 66 bf
       0.7090501 -0.26417434 -1.0965639 -0.8998899
0000a0 f9 30 87 3f 46 b6 12 c0 8f a4 c8 c0 84 17 e5 bf
       1.056182 -2.292375 -6.2700877 -1.7897801
0000b0 df 8b dc 3e 6e 60 c7 bf 3d 77 98 c0 a2 21 ab bf
       0.43075463 -1.5576303 -4.7645555 -1.3369639
0000c0 22 ae 14 bf f3 27 07 bf 44 5c 2c 3f 06 43 c0 be
       -0.58078206 -0.5279533 0.67328286 -0.37551135
0000d0 38 97 05 c0 3b d0 fe 3e 33 6f 93 40 cd a3 4e 3f
       -2.0873547 0.49768242 4.607324 0.8071869
0000e0 96 63 85 bf 63 f7 6c 3f 08 9e c5 3d 2d 9f 03 bf
       -1.0421016 0.9256498 0.09649283 -0.5141476
0000f0 0c 14 81 bd 31 48 b6 3f 5f a9 61 bf f2 05 d5 bf
       -0.06302652 1.4240781 -0.88149065 -1.6642439

bias f4 [16]
000000 f7 ca 00 40 39 d5 56 bf 1d a7 3b bf 75 64 d3 bf
       2.012388 -0.839191 -0.7330187 -1.6515032
000010 7a bb 30 c0 42 40 0e c0 e4 66 03 c0 a0 de b8 3f
       -2.7614427 -2.222672 -2.053155 1.444294
000020 1b 72 2a 40 7f 9a 42 bf d6 d3 13 c0 2d a2 0d c0
       2.6632144 -0.7601699 -2.3098044 -2.2130234
000030 87 42 c9 bf 56 d0 00 40 52 9a 93 bf 09 af 64 3f
       -1.5723428 2.0127158 -1.153147 0.8932958

weight f4 [8, 16]
000000 21 80 35 bf 8d 9d 43 be b2 ff 80 3d 5d a5 ed 3e
       -0.70898634 -0.1910307 0.0629877 0.46415225
000010 9d f8 be 40 d6 94 09 3f 76 32 41 3f 75 10 fa be
       5.9678483 0.5374273 0.7546762 -0.4884068
000020 c8 67 05 c0 9e 8f c2 3e 92 f8 c9 3f 63 75 07 3f
       -2.0844593 0.38000196 1.5778983 0.5291349
000030 f0 d0 14 3f 4a e5 15 bf f9 34 54 bd 41 cd 17 bf
       0.58131313 -0.5855299 -0.05180833 -0.5929757
000040 f3 27 58 bf 70 d9 65 be 33 e8 fa 3d db a8 d5 3e
       -0.8443596 -0.22446227 0.1225132 0.4173039
000050 6e 81 b8 40 ed a5 fe 3e c1 ae 42 3f 36 08 bf be
       5.7657995 0.49735966 0.76047903 -0.37310952
000060 90 c8 0a c0 ce c1 25 3e d3 27 ea 3f 01 66 4d 3f
       -2.1684914 0.16187212 1.8293403 0.8023377
000070 ac 8e 06 3f dc 9a 76 bf bb 00 6d 3d 38 b5 7a be
       0.5256145 -0.96330047 0.057862025 -0.24483192
000080 94 d1 97 bf f5 48 96 3e b9 08 fa 3e 8e 8e 6b 3f
       -1.1860833 0.29352537 0.4883478 0.92014396
000090 1d f5 a9 40 ec 87 47 3f d3 39 1a 3f 08 14 23 be
       5.311171 0.77941775 0.6024448 -0.1592561
0000a0 14 27 0b c0 f0 b8 17 3f 02 5f f0 3f cd 88 93 3f
       -2.1742601 0.5926657 1.8778994 1.1526123
0000b0 6d 23 b6 3e d5 7e 96 bf e3 8c 17 3e 0e d9 20 be
       0.35573903 -1.1757456 0.14799838 -0.157078
0000c0 64 31 9a bf 6a d2 5d 3e 7b c6 d1 3e 2a 86 48 3f
       -1.2046323 0.21662298 0.4097174 0.7832972
0000d0 42 73 ab 40 54 c7 09 3f 28 d4 40 3f 8e 2d 06 bf
       5.3578196 0.53819776 0.75323725 -0.5241326
0000e0 9a bb f5 bf 94 72 b7 3e e2 e0 01 40 92 1c 90 3f
       -1.9197876 0.35829604 2.0293508 1.1258719
0000f0 5d 26 b1 3e ce b2 87 bf 84 80 82 3d 3b ed 9d bd
       0.3459958 -1.0601442 0.06372169 -0.07711264
000100 bd e6 5f bf 5f fe 0e bf eb 03 80 3e 14 92 56 3d
       -0.87461454 -0.5585689 0.2500299 0.052385405
000110 f9 49 bd 40 4e 43 63 3f 67 f0 73 3f 75 41 91 be
       5.91528 0.88774574 0.952887 -0.28370252
000120 19 ed f1 bf a6 cf 29 be 1f 1f ae 3f 43 34 22 3f
       -1.8900481 -0.16583118 1.3603247 0.63360995
000130 18 19 06 3f f8 c4 24 bf 53 29 4f be af 16 5c bf
       0.5238204 -0.6436305 -0.20230608 -0.8597211
000140 a4 f0 9e bf d7 bc 1a 3f d4 51 8b 3e ab 35 7d 3f
       -1.2417188 0.60444397 0.27210867 0.98910016
000150 4d cc a2 40 af b4 62 3f 87 39 42 3f 78 35 12 bf
       5.087439 0.8855695 0.7586903 -0.57112837
000160 07 d7 09 c0 e2 3e 70 3f 87 ca f2 3f a1 44 92 3f
       -2.1537492 0.9384595 1.8968056 1.1427194
000170 c9 53 32 bd 91 2b 67 bf fe ab f9 3e 54 2a 85 bd
       -0.043536935 -0.9030085 0.48764032 -0.06502214
000180 4a e1 b4 bf da 30 2e 3f c5 e0 cf 3e a2 43 82 3f
       -1.4131253 0.6804329 0.40601173 1.017689
000190 be 19 9d 40 17 d2 1a 3f 9d ca 84 3f 22 25 93 be
       4.9093924 0.6047682 1.0374333 -0.28739268
0001a0 30 83 06 c0 64 f5 5a 3f 0a 46 f4 3f dd 5f 9e 3f
       -2.101757 0.85530686 1.9083874 1.2373005
0001b0 d9 fe 9a 3d 76 10 86 bf 44 9c 32 3e f3 66 98 bc
       0.075681396 -1.0473773 0.17442423 -0.018603778
0001c0 6a f8 b2 bf 86 71 a7 3e ec b2 d3 3e a7 b0 58 3f
       -1.398206 0.327038 0.41347444 0.8464455
0001d0 1c 05 a0 40 88 b7 da 3e db 4a 83 3f 12 ae b5 be
       5.0006237 0.42718148 1.0257219 -0.35484368
0001e0 df e9 06 c0 0d 5b 47 3f 20 b9 ef 3f 78 04 a0 3f
       -2.1080244 0.7787331 1.8728371 1.2501364
0001f0 fc dc ee 3c 60 b3 86 bf bd 9c 9d 3d 76 31 27 3e
       0.029158108 -1.0523491 0.07695911 0.16327462

bias f4 [8]
000000 b0 46 39 3e 32 00 dd 3e b3 30 a3 3e 87 e2 de 3e
       0.18093371 0.43164212 0.31873092 0.43532202
000010 e4 3a cc 3e fd 33 41 3e 01 22 32 3e 3d 86 85 3e
       0.3988868 0.18867488 0.17395784 0.26078978

weight f4 [2, 8]
000000 e7 f1 59 c0 1d 9c 58 c0 2d 87 35 c0 b3 0d 35 c0
       -3.4053895 -3.3845284 -2.8363755 -2.8289611
000010 60 cc 5c c0 4d 51 1c c0 66 32 06 c0 4d 05 1b c0
       -3.449974 -2.4424622 -2.096826 -2.4221985
000020 72 7c 09 c0 df 20 16 c0 72 b9 43 c0 a7 cb 37 c0
       -2.1482205 -2.3457563 -3.0581937 -2.871805
000030 99 db e4 bf d1 61 4a c0 fd 0f 4b c0 82 44 43 c0
       -1.7879516 -3.1622202 -3.1728508 -3.0510564

bias f4 [2]
000000 c7 c1 2c 40 10 8c 2a 40
       2.6993272 2.6647987
