cartpole/model/model.pt (torch_old, 5609 bytes, 6 tensors)

weight f4 [16, 4]
-1.179099 0.5626613 0.99871284 -1.0025234 -2.2099774 -0.50130767 2.1470647 -0.14878245
-1.4977548 0.53748775 1.1815469 -0.99916935 -1.9048458 -0.3141869 0.95314044 -0.27835813
-1.4645412 0.89168006 0.75709385 -0.66771144 -1.7157038 0.9260008 1.2023671 -0.9146305
-3.4969018 0.09276778 5.1566644 1.7983787 -2.463336 -0.15765682 3.1161191 0.624464
-1.2715869 0.87019444 1.4160923 -0.7090995 -0.751597 0.88479114 1.3649995 -0.5956679
-1.5688964 0.7560091 1.5639225 -0.95804536 -1.2587619 0.83916205 0.4498721 -0.7987384
-1.3243957 0.20958649 1.0270962 -0.41185403 -2.9145203 -0.3326929 2.7186372 0.93200874
-1.8538237 -0.46858662 2.1539907 0.72614527 -1.5479239 0.728626 0.75024974 -0.776348
00000000: b7ec 96bf 920a 103f a5ab 7f3f b052 80bf
00000010: 4570 0dc0 b355 00bf 8269 0940 6d5a 18be
00000020: 6eb6 bfbf cc98 093f ee3c 973f 90c9 7fbf
00000030: fdd1 f3bf 1bdd a0be 0301 743f f584 8ebe
00000040: 1676 bbbf 2545 643f e7d0 413f 23ef 2abf
00000050: 2f9c dbbf 630e 6d3f 2ae7 993f 3925 6abf
00000060: 3dcd 5fc0 09fd bd3d 6503 a540 4631 e63f
00000070: 4ca7 1dc0 ca70 21be 7f6e 4740 dfdc 1f3f
00000080: 5cc3 a2bf 10c5 5e3f 8342 b53f 8b87 35bf
00000090: a968 40bf ac81 623f 4eb8 ae3f b17d 18bf
000000a0: 99d1 c8bf d089 413f 9d2e c83f 7642 75bf
000000b0: 1c1f a1bf 53d3 563f a355 e63e 1f7a 4cbf
000000c0: cc85 a9bf d79d 563e e377 833f 88de d2be
000000d0: 8087 3ac0 b956 aabe 27fe 2d40 2098 6e3f
000000e0: 184a edbf 96ea efbe fcda 0940 a8e4 393f
000000f0: 5f22 c6bf 3c87 3a3f 5e10 403f bebe 46bf

bias f4 [16]
-0.7779406 -0.6131343 -0.44873416 -0.4626555 -0.45134112 -0.7260034 -2.99435 -1.6909944
-0.3280561 -0.524968 -0.7088744 -0.69922405 0.11785272 -2.0584745 0.9041379 -0.6915917
00000000: 1d27 47bf 5ff6 1cbf 7cc0 e5be 2fe1 ecbe
00000010: 2f16 e7be 5cdb 39bf 6ea3 3fc0 8172 d8bf
00000020: f8f6 a7be 4e64 06bf cb78 35bf 5900 33bf
00000030: c45c f13d 0cbe 03c0 9575 673f 270c 31bf

weight f4 [8, 16]
0.078751884 -0.20060095 0.13053717 0.019133592 -0.014703848 0.1315942 2.11616 0.15895002
-0.0012704403 0.048263885 -0.007172961 0.094374344 0.14754961 0.30816662 -0.7188978 0.20084621
0.19620682 -0.279615 -0.024171017 -0.30045846 0.18661174 0.16540354 2.1916175 0.27052712
0.26346678 -0.04736715 0.3031173 0.073620915 -0.12873538 0.62281066 -0.59899205 0.031271942
-0.103012025 0.07523155 0.05000184 -0.15903655 0.07253835 0.15473637 2.3850398 -0.037640616
-0.10175643 0.39076775 -0.017180402 0.2087622 0.074995026 0.21413684 -0.67364216 0.28527683
0.17839314 -0.096241996 0.3089242 -0.16912037 0.1583926 0.13735686 2.0986514 0.33264998
0.26361898 -0.12415244 0.27450153 0.12604065 -0.2937353 0.30287546 -0.74265355 -0.054276127
0.08564351 -0.14790548 0.20165555 -0.04716966 0.18408509 0.07902897 2.2657838 0.20025384
0.26198176 -0.0013527187 -0.075480305 -0.0031448153 0.069223076 0.3488215 -0.7992495 0.21992627
0.1869465 -0.4239925 0.10827723 -0.027166188 0.0091282325 0.30694452 2.0478556 0.115813464
-0.103519775 -0.06447502 0.28995237 0.1476533 -0.12612315 0.31090295 -0.48401624 0.09790018
0.07556865 -0.009891073 -0.15958722 0.003406734 0.19800994 -0.014533261 2.101013 0.03011839
0.102127604 0.25708836 0.26732063 -0.14369836 0.048858266 0.07847899 -0.42532736 0.16435559
0.22839007 -0.10560425 0.07719866 -0.09688381 0.33342278 0.08591163 2.3340526 -0.0109073855
0.10165209 0.005206403 0.047646854 0.08819749 -0.18703957 0.20802337 -0.43587422 -0.026931193
00000000: ab48 a13d 566a 4dbe 89ab 053e 0dbe 9c3c
00000010: 69e8 70bc a1c0 063e 2a6f 0740 cbc3 223e
00000020: e784 a6ba 5ab0 453d 280b ebbb 5647 c13d
00000030: 3f17 173e 04c8 9d3e b009 38bf a1aa 4d3e
00000040: 71ea 483e b329 8fbe 4c02 c6bc b1d5 99be
00000050: 2617 3f3e 8c5f 293e 7643 0c40 8882 8a3e
00000060: 1ee5 863e 0f04 42bd 3132 9b3e 90c6 963d
00000070: 35d3 03be 8570 1f3f 8b57 19bf 0217 003d
00000080: f8f7 d2bd 0013 9a3d bbce 4c3d 7ada 22be
00000090: fd8e 943d 3673 1e3e 7ea4 1840 0c2d 1abd
000000a0: ad65 d0bd b612 c83e eabd 8cbc c2c5 553e
000000b0: fe96 993d b046 5b3e d073 2cbf ce0f 923e
000000c0: b1ac 363e 861a c5bd 502b 9e3e e42d 2dbe
000000d0: ab31 223e 47a7 0c3e 4e50 0640 1951 aa3e
000000e0: 11f9 863e a243 febd 778b 8c3e cd10 013e
000000f0: 7964 96be 7e12 9b3e 8b1e 3ebf a550 5ebd
00000100: dd65 af3d 8974 17be cb7e 4e3e f934 41bd
00000110: cd80 3c3e f1d9 a13d 9a02 1140 580f 4d3e
00000120: 7922 863e b54d b1ba 6b95 9abd 3f19 4ebb
00000130: d4c4 8d3d bb98 b23e 9d9b 4cbf 5a34 613e
00000140: e76e 3f3e 8c15 d9be 74c0 dd3d a08b debc
00000150: 958e 153c d527 9d3e 1110 0340 9c2f ed3d
00000160: 2d02 d4bd 7b0b 84bd a374 943e 6d32 173e
00000170: 6d26 01be ac2e 9f3e fad0 f7be e47f c83d
00000180: bdc3 9a3d 2b0e 22bc d56a 23be 8343 5f3b
00000190: 1ec3 4a3e ea1c 6ebc ff76 0640 d8ba f63c
000001a0: 4728 d13d 16a1 833e 40de 883e aa25 13be
000001b0: 9b1f 483d 98b9 a03d 82c4 d9be d54c 283e
000001c0: 16df 693e 0b47 d8bd 551a 9e3d 056b c6bd
000001d0: 64b6 aa3e 70f2 af3d 1e61 1540 e4b4 32bc
000001e0: f92e d03d 799a aa3b 5929 433d e3a0 b43d
000001f0: 4d87 3fbe 1404 553e e82a dfbe ce9e dcbc

bias f4 [8]
-0.23484276 -0.47403413 -0.4221018 -0.2603114 -0.39301327 -0.17254938 -0.3491176 -0.4032926
00000000: 9f7a 70be 9ab4 f2be ba1d d8be 8947 85be
00000010: 0939 c9be c9b0 30be 8bbf b2be 5e7c cebe

weight f4 [2, 8]
-1.174861 -1.1601986 -1.5328295 -1.0747995 -1.3442787 -0.7931142 -0.8620678 -1.4389266
-1.1128275 -1.380697 -1.1574576 -1.0090616 -1.4597532 -1.3625077 -0.7486594 -1.1085953
00000000: d861 96bf 6381 94bf c233 c4bf 0893 89bf
00000010: 5311 acbf 8809 4bbf 7ab0 5cbf bf2e b8bf
00000020: 2271 8ebf aeba b0bf 9227 94bf ee28 81bf
00000030: 31d9 babf a766 aebf 24a8 3fbf 73e6 8dbf

bias f4 [2]
-0.462267 -0.4484585
00000000: 43ae ecbe 5a9c e5be
