cartpole/model/model_2.pt (torch_old, 2689 bytes, 6 tensors)

weight f4 [16, 4]
000000 38 9a 5e bf d0 c6 b4 3f 22 00 a2 40 80 03 ab 3f
       -0.8695407 1.4123173 5.062516 1.3360443
000010 e6 11 ee bf b2 f3 ba 3c d8 eb aa 40 87 66 44 3f
       -1.8599212 0.022821281 5.3412895 0.76718944
000020 97 b4 70 bf f8 79 54 3f f6 35 bd 40 cf 1d 76 3f
       -0.9402556 0.8299861 5.912837 0.96139234
000030 dc 18 5f c0 ef 3d 2e 3e 34 46 a1 40 b0 6b e9 3e
       -3.4858923 0.17015813 5.0398197 0.45589972
000040 56 cf 66 c0 89 a1 2f be 98 7b 9b 40 27 22 35 3f
       -3.6064048 -0.17151465 4.858837 0.7075524
000050 c4 84 5c c0 9a 2a 08 3f d2 2b 9f 40 19 43 d3 3e
       -3.4456034 0.53190005 4.974099 0.4126213
000060 fd 2b 4e 3d 37 fb 98 bf ba 41 2a c0 26 75 63 bf
       0.05033492 -1.1951665 -2.6602616 -0.8885063
000070 e5 37 a8 3d 5b d1 4f bf 28 1f 8f c0 ad 4e fb be
       0.08213786 -0.81178826 -4.4725533 -0.49083462
000080 db cb 3b c0 69 25 6e 3e ea 3c a7 40 a4 25 17 be
       -2.9343174 0.23256458 5.226186 -0.14760453
000090 e8 8b 58 bf 76 c7 8a 3f 74 2e c1 40 d1 91 e7 3f
       -0.8458848 1.0842121 6.0369205 1.8091375
0000a0 72 92 8d bf 11 16 d2 3e e7 0e b3 40 25 45 26 3f
       -1.1060317 0.4103246 5.595569 0.64949256
0000b0 8b c6 bb bf 0c 47 c8 3e 1b 58 ae 40 64 0e fc 3e
       -1.4669966 0.39116704 5.448255 0.4922973
0000c0 c3 91 f8 bf 1e b9 1d 3e dc 71 b8 40 1f 56 b5 3e
       -1.9419483 0.15402648 5.763899 0.35417268
0000d0 9a ce 3e 3e c4 1d 8e bf b4 cb 81 c0 eb 35 e0 be
       0.186335 -1.1102834 -4.056116 -0.43791136
0000e0 bd 13 35 3e 41 a7 7b bf 3e 58 79 c0 77 6c 2f bf
       0.17683311 -0.98302084 -3.8960109 -0.6852488
0000f0 cb 2e 1f c0 11 9e 0a 3f 58 49 a4 40 95 a0 42 3f
       -2.487231 0.5414744 5.133953 0.7602628

bias f4 [16]
000000 13 8d cc bf 4a 13 11 c0 fb 2d 05 c0 47 eb 07 c0
       -1.5980552 -2.2668023 -2.0809314 -2.1237352
000010 7f ac f9 bf 85 76 03 c0 4d de f3 3f 38 2a 8f 3f
       -1.9505767 -2.0541089 1.9052216 1.1184759
000020 99 82 c9 bf 6f a7 f0 bf e2 ab 05 c0 c8 09 0b c0
       -1.574298 -1.8801097 -2.088616 -2.172472
000030 c1 dd 08 c0 fa 43 57 3f d3 4f a2 3f 79 d3 0e c0
       -2.1385348 0.840881 1.268061 -2.2316573

weight f4 [8, 16]
000000 c8 5b a5 3f 89 3f 4a 3f 71 42 93 3f 4c 77 63 3f
       1.2918634 0.79003197 1.1504651 0.8885391
000010 04 95 dc 3e a7 6e 17 3f 63 2f 8a bf 3b 24 d0 bf
       0.4308244 0.5915322 -1.0795711 -1.6261057
000020 db f3 d7 3e fb 2a df 3f e7 b7 83 3f 1e b5 8d 3f
       0.42178234 1.7434992 1.0290498 1.1070898
000030 a8 9c 3d 3f 92 78 e0 bf e1 ca d5 bf 7f d9 48 3f
       0.74067163 -1.7536795 -1.6702539 0.7845687
000040 38 ec 8a 3f 12 88 bf 3f 32 58 b6 3f b9 d8 93 3f
       1.0853338 1.49634 1.4245665 1.1550514
000050 e9 77 9e 3f b4 10 0d 3f 64 46 a6 bf ca 25 e2 bf
       1.2380344 0.5510361 -1.2990232 -1.7667782
000060 e9 25 ad bd 15 7d ec 3f 4d 90 a9 3f 12 b6 81 3f
       -0.084544964 1.8475672 1.3247162 1.0133688
000070 5d e9 83 3f a1 54 98 bf b2 3d ac bf 39 79 94 3f
       1.0305592 -1.1900827 -1.3456328 1.1599494
000080 14 3f 9e 3f 8f 5b 05 3f b8 eb bb 3f 79 6f 61 3f
       1.2363 0.5209283 1.4681311 0.8806072
000090 c3 6a 82 3e b3 53 66 3f fb 42 9c bf 35 e2 e4 bf
       0.25472078 0.89971465 -1.2207941 -1.7881533
0000a0 96 6f 0d 3f 85 46 bf 3f 39 a5 55 3f 02 fe 91 3f
       0.5524839 1.4943396 0.83455235 1.1405642
0000b0 54 a1 3c 3f 61 8b ec bf 57 40 cf bf b8 68 8a 3f
       0.7368367 -1.8480035 -1.619151 1.0813208
0000c0 29 b5 ae 3f c8 07 bb 3f ef 7b a1 3f 9c 84 7c 3f
       1.3649036 1.461175 1.2615947 0.98639846
0000d0 88 b0 72 3f 2a aa 78 3f af 1a a3 bf b1 c6 b3 bf
       0.94800615 0.9713465 -1.2742518 -1.4045011
0000e0 b0 fd a0 3e 0f 77 d2 3f 72 1c 80 3f 86 d7 95 3f
       0.31443548 1.6442584 1.0008681 1.1706398
0000f0 c0 43 81 3f a1 46 9b bf a9 90 c9 bf 10 69 7a 3f
       1.0098801 -1.2130929 -1.5747272 0.9781656
000100 a6 5e 9e 3f 2f fc ae 3e 8d 78 97 3f db dd 14 3f
       1.2372634 0.34176776 1.1833664 0.58151025
000110 60 a0 89 3e ab 57 76 3f e2 86 81 bf 57 bd df bf
       0.2688017 0.9622752 -1.0119288 -1.7479657
000120 07 85 11 3f 68 11 a1 3f f6 01 26 3f 9b 06 4a 3f
       0.5684361 1.2583437 0.6484674 0.7891633
000130 b6 83 63 3f 76 75 fa bf 6a f7 b9 bf 74 4e ff 3e
       0.8887285 -1.9567096 -1.452863 0.49864542
000140 d4 fe 9e 3f 56 55 7e 3f 2b 33 b6 3f cf 01 80 3f
       1.2421517 0.9934896 1.4234365 1.0000552
000150 6c 67 1e 3f 7a eb 47 3f 30 a6 89 bf 0a b3 dd bf
       0.6187656 0.78093684 -1.0753841 -1.7320263
000160 1c 4f a8 3d ed 51 ff 3f ee 1c 60 3f 1a c8 8b 3f
       0.08218214 1.9946877 0.87544143 1.0920441
000170 31 03 7c 3f 11 61 c4 bf 3b 1c bd bf a9 de 83 3f
       0.9844237 -1.5342122 -1.477424 1.0302325
000180 03 9d 89 3f 64 a5 9e 3f 90 48 b2 3f 63 f8 a1 3f
       1.0751041 1.2394223 1.3928394 1.2653927
000190 c6 86 86 3f 4b 41 44 3f 8c cb a2 bf 2f 48 c3 bf
       1.050988 0.7666213 -1.2718368 -1.5256404
0001a0 44 f9 be 3e 55 c8 eb 3f 7d 6b 93 3f 0d ce 84 3f
       0.3729955 1.8420511 1.1517178 1.0375382
0001b0 9b a0 62 3f a6 c9 a3 bf 21 e6 ce bf ff 28 74 3f
       0.88526314 -1.2795913 -1.616398 0.95375055
0001c0 53 68 b7 3f c9 8a a7 3f 68 d9 94 3f f7 5e 9b 3f
       1.4328712 1.3089229 1.1628847 1.2138356
0001d0 33 19 4a 3f 1b 88 10 3f 4d 1c 9e bf 98 04 af bf
       0.789447 0.5645768 -1.2352387 -1.3673277
0001e0 4f 0d ec 3e 1a 3d df 3f 1c bb 70 3f 12 20 65 3f
       0.46103904 1.7440522 0.94035506 0.8950206
0001f0 67 67 8d 3f bb f1 be bf df a7 c5 bf f5 bf 68 3f
       1.1047181 -1.491752 -1.5441855 0.90917903

bias f4 [8]
000000 43 2b 9d bf f2 62 88 bf 58 84 7d bf 01 cc 9f bf
       -1.2278827 -1.0655196 -0.99030066 -1.2484132
000010 87 fc 71 bf 6d af a0 bf 1c 7c a6 bf 39 b7 9e bf
       -0.9452595 -1.2553536 -1.3006625 -1.2399665

weight f4 [2, 8]
000000 4a 6e a3 bf eb c4 06 c0 97 20 a2 bf fb c2 03 c0
       -1.2768033 -2.105769 -1.2666196 -2.0587757
000010 31 73 0d bf 1a 5d 00 c0 b5 7d 0e c0 00 87 05 c0
       -0.55253893 -2.0056825 -2.2264225 -2.0863647
000020 10 38 02 c0 b0 34 90 bf f6 94 f4 bf 2e be 9b bf
       -2.0346718 -1.1266079 -1.9107959 -1.2167413
000030 8e 0f 21 c0 bf fe d7 bf e9 6c c5 bf 86 51 bd bf
       -2.5165744 -1.6874617 -1.5423862 -1.4790504

bias f4 [2]
000000 a5 76 40 3f 3a 95 28 3f
       0.7518104 0.658527
